models/deephit_final_leukemia_best.pth (torch, 86245 bytes, 13 tensors)

weight f4 [128, 60]
00000000: ed0f eebd 562e c93c 5833 a73d fc0e 9cbe
00000010: e438 75bc d807 7c3e b4f8 b5bb d115 143e
00000020: 9e4b d63d 5c88 383d 44a8 d03b bff2 ad3d
00000030: 2a27 3f3d cf73 1e3e deff 0bbe ed20 683d
00000040: 994a eabc 2ea8 c4ba c09d 4c3d b408 3f3e
00000050: 2728 973e 3b71 913e 79bd 473e 500b 9bbd
00000060: e442 cebd e70f 573e 11f4 713e 8bcc 32be
00000070: 263f b3be 1227 9cbe 5e0a b7be 2ac4 85bd
00000080: 52c0 d63d ffc8 6e3e b69a d3bd 32ec 763d
00000090: b606 e73b 1de8 433e aa70 1c3e e253 d7bd
000000a0: 3b08 b6bd c841 823e 6a85 6f3d 466d 7d3c
000000b0: a5c4 cebd 5fa6 9ebe fcef 48bd d698 953e
000000c0: a308 5ebe bdf6 f73d a04a 993e f01d 32be
000000d0: c7bb 02be 45ba c83b 5899 0ebe 741d 3bbe
000000e0: 1fd1 ca3d d023 43be f944 9f3c 0a76 cb3e
000000f0: 075d 5bbe b83b 6c3e f14c a83e b9df 9e3d
00000100: 86bd 353e a068 abbc a304 da3d f463 eebc
00000110: 5eac 443d 430d d2bd af21 743c 57d9 1dbb
00000120: 9266 8b3d 939c 2a3e 97f3 4fbe d256 54bb
00000130: ee02 513c 4ff4 98bc 6f6c e43d 2fa4 a83c
00000140: 2f00 aa3d ea89 babd 1705 c63e 0808 553e
00000150: 465a 893e 165d 7cbe a52b 143d a5a5 aa3d
00000160: 925a 743e 112b e2be 8b43 143d f404 cebd
00000170: d8f0 453e 67c8 0d3e eac9 e53c e668 c33e
00000180: 646e e73c 0eca 1fbe d3f1 cebe e9c6 b1bb
00000190: 9281 5b3d 0ac9 8a3d e3ff 4dbd 0eb5 48be
000001a0: 312b 463d d7d0 55be 8466 4d3e 7a4b ba3d
000001b0: 949b c93d f8ea 7dbd cad9 fe3d 3d76 b03e
000001c0: 3c66 09bd 3ec5 b0bd a5ce debd 447d 97bd
000001d0: f9b4 393e 8485 593e 75f9 53bd 56c1 fe3c
000001e0: 271a 583e ebd3 f43d e57a 00be d19d edbd
000001f0: 1be1 a3bc ebc5 613d 4b9e 1e3e 4838 1cbd
00000200: ada4 943e badc 723c 0fc8 35be dd0c dabd
00000210: 7fdf 44bd cc63 36bd cd97 e23b 708c 9bbe
00000220: ea6f 83bd d10c 1f3e 6624 7dbe c97c 39be
00000230: 82e4 273e 76f0 71bd 6b55 283e 6664 2f3e
00000240: cbde 1bbe 38c2 eebd fea7 23bd a3df 5d3e
00000250: 8420 a83d 984b 90bd f71a 813b cb3c cfbd
00000260: 3753 5ebe c119 143e 2b94 2cbe 509a 7a3d
00000270: 781e 33bd 571c eb3d 4acb 1abd 54bc 4cbd
00000280: 35bb 493e a1e4 c6bc 06e0 913d 33f1 443e
00000290: 92c7 ec3c 8e6a 823c bbd7 773e cccd c8bc
000002a0: 45a0 b1bc d243 453d 1941 8c3e 7288 3c3d
000002b0: a61c 8dbe dd04 163d fdaf 0d3e 03f7 753e
000002c0: 3154 93bd f20e 463e 9409 c93c c913 1dbe
000002d0: a340 133c 8aa5 793d e17e 7ebd add9 183d
000002e0: 237a cd3d a841 083d 9b78 64bd 3cd2 33be
000002f0: 3a05 b7bd bb4b c33c 1a84 763d c21a 51be
00000300: d8c2 bfbd 329f 5b3c af98 47be 3b3f 4cbd
00000310: 6458 a43d b357 8abd e8ef 8c3e 786f a43d
00000320: 5f11 943c 102f 8c3d be3b 3e3e e0bc 803e
00000330: 578e debd ce82 8bbe 60e3 5f3d 9a2a 2cbe
00000340: 149f d2be aa76 663d 3e8c 86bd 2f8d b63d
00000350: eebb 5d3d e514 df3e dd0a 00be a7f1 1f3d
00000360: 0643 0b3e 40b5 933d 34da 783c f805 fc3d
00000370: 066b 31be 4c78 a83e 5b5a bcbe be23 5f3e
00000380: 3d84 88be 2d47 abbb aa46 53be 68d1 e8bd
00000390: a586 2cbe 1569 c5bd d710 9bbe 0e21 a1bd
000003a0: 369f 56be 5a92 963d 24be 903e d5ea f7bd
000003b0: 965f a7bc 8b63 81bd 39eb 8fbd 9d1f 7abe
000003c0: 9d78 4b3e c938 a63c e8a2 7ebe ffc1 86be
000003d0: f9ff 7d3d 2e93 c13e f8f2 dd3e 473a 87be
000003e0: b702 273e 6297 1cbe 2ead 9fbd 8834 08bd
000003f0: 89f3 1c3d 34a8 3dbe e505 9dbe fdc0 eebd
-0.11624131 0.024558228 0.0816409 -0.30480182 -0.014967177 0.24612367 -0.0055533294 0.14461447
0.104636416 0.045051917 0.006367715 0.08493566 0.04666821 0.15473865 -0.13671824 0.056672025
-0.028600024 -0.0015003735 0.04995513 0.18655664 0.2952282 0.284067 0.19505872 -0.07570517
-0.10071352 0.2100216 0.2362826 -0.1746084 -0.35009116 -0.30498558 -0.35750097 -0.06531556
0.10485901 0.23318861 -0.10332243 0.060283847 0.0070503606 0.19131513 0.15277353 -0.10514046
-0.088882886 0.25440812 0.058476843 0.015467947 -0.10096101 -0.30986306 -0.049056992 0.29218167
-0.21682982 0.121076085 0.29939747 -0.17394233 -0.12766944 0.0061257207 -0.13925683 -0.18272954
0.09903168 -0.1905663 0.019442068 0.39738494 -0.21422206 0.23069656 0.32871202 0.077575155
0.17748079 -0.020923913 0.10645416 -0.029100396 0.048015945 -0.10256436 0.014900609 -0.0024085843
0.06806673 0.16661291 -0.20307766 -0.0032400382 0.012757046 -0.018671183 0.111534946 0.020586101
0.08300816 -0.09108336 0.38675758 0.20803845 0.26826686 -0.24644884 0.036174435 0.083323754
0.23862675 -0.44173482 0.036197226 -0.100595385 0.19330156 0.13845979 0.028050382 0.3816597
0.02825088 -0.15604421 -0.40418872 -0.0054253233 0.053590365 0.067766264 -0.05029286 -0.19600317
0.048381034 -0.20880447 0.20058638 0.09096427 0.09844127 -0.06199166 0.12443884 0.3446521
-0.033544764 -0.08631371 -0.10879258 -0.073969394 0.18135442 0.21242338 -0.051751573 0.03109805
0.21103726 0.11954483 -0.1254688 -0.11602367 -0.0200048 0.05512039 0.15490071 -0.03813961
0.29031888 0.014823133 -0.17752098 -0.10646985 -0.048064705 -0.044528767 0.0069150687 -0.30380583
-0.0641783 0.15532233 -0.24720916 -0.18114008 0.16395763 -0.059067212 0.16438834 0.17128143
-0.15221708 -0.11658138 -0.03995513 0.21667342 0.08209327 -0.07045668 0.003939982 -0.10119017
-0.21711431 0.1446295 -0.16853397 0.06118232 -0.04373023 0.11480015 -0.037791528 -0.04998429
0.1970032 -0.02427894 0.07122807 0.19232635 0.028903756 0.01591995 0.24203388 -0.024512194
-0.021682868 0.04816038 0.27393416 0.046028562 -0.2756092 0.03662573 0.13836665 0.24020009
-0.071937926 0.19341639 0.0245407 -0.15339579 0.008987579 0.060948886 -0.06213272 0.037316967
0.10033061 0.03326574 -0.05577908 -0.17560667 -0.08936544 0.023839822 0.060184576 -0.20420364
-0.09363335 0.013404654 -0.19491838 -0.04986499 0.08024672 -0.067550085 0.27526784 0.080290735
0.01807469 0.06844914 0.18577477 0.251441 -0.10866993 -0.27248234 0.0546602 -0.16813126
-0.41136992 0.05626551 -0.06569718 0.089136474 0.0541343 0.4357063 -0.12504144 0.039048817
0.13599786 0.07212305 0.015188742 0.12305826 -0.17325982 0.3290428 -0.36787686 0.21790978
-0.2666339 -0.0052269907 -0.20632425 -0.11368066 -0.16848238 -0.096391834 -0.30286285 -0.07867633
-0.20959172 0.07352133 0.28270066 -0.121053375 -0.020431321 -0.063178144 -0.07027287 -0.24426122
0.19870229 0.02029075 -0.24866831 -0.26319882 0.062011693 0.37807602 0.43349433 -0.2641165
0.1630963 -0.15292123 -0.07796703 -0.033253223 0.03831819 -0.18521196 -0.3066856 -0.11657903

bias f4 [128]
00000000: 0067 50bc f355 d0bd f8e2 bdbd 6880 3ebc
00000010: 6009 a13b 6850 ba3c 4004 6dbb dcc4 863d
00000020: fef3 8d3d 09f4 cfbd a677 cc3d e423 923d
00000030: 7469 9abd f413 d03d 3c6f 96bc b4bf 483d
00000040: a882 3a3d c8c6 6abd f007 653c 4ac4 be3d
00000050: 23fd 80bd 48d5 c4bc b2f4 b53d ca2f cb3d
00000060: 6082 ea3b dc6d 0a3d 00a5 753b 3040 0d3d
00000070: a053 67bd 0333 d4bd 50cf a13c de41 65bd
00000080: 0ead c7bd 2697 c1bd c4b1 e93d 18b4 753d
00000090: 6e2f eb3d 76a8 00bd 2a37 a73d 1a01 f9bd
000000a0: 4c8f f5bc 0050 1538 9a0e de3d 00ee ef3d
000000b0: d248 f23d 9cbc b43d ee45 c13d 8051 933b
000000c0: fa5d a8bd 773b 80bd d9f4 87bd 28b9 3a3d
000000d0: a84e 8d3d 40a1 373b 18de 15bd a092 98bd
000000e0: 62e4 9f3d 6829 e03d 66d3 31bd 828e ee3d
000000f0: 0a63 f5bd 6045 d9bd 52a6 ad3d 00e4 38ba
00000100: e416 043d 2045 8dbd b8e4 17bd 502e 28bd
00000110: 6cb8 9c3d c4b1 543d 4050 6abc 5c02 6a3d
00000120: 2cc6 91bd 3333 03be b820 e43c 538e fabd
00000130: a891 5b3d fd76 023e 88df ef3c 727e adbd
00000140: d47f 39bd 2c07 1e3d cab5 f53d 320a c93d
00000150: 3f27 ddbd 00ab 3b3a f68f b0bd 1d46 b0bd
00000160: a874 8dbc f846 43bc 20bf df3d a67e f03d
00000170: 9d34 013e 2e0b ff3d 6035 bf3b 6a5b 4ebd
00000180: b0b8 96bd 988e eb3d 3636 b83d 4b32 afbd
00000190: c0bc fc3b c0e7 02bc 34c9 993d b897 033d
000001a0: e8e2 71bd 70b4 5fbc ac80 7d3d de30 67bd
000001b0: 94c5 893d ff2a 88bd d877 3ebd b48b 03bd
000001c0: 0e88 babd 86b9 b6bd d02d 933d 7487 d6bc
000001d0: b73b e8bd 8a5f a8bd 8687 893d 8610 b8bd
000001e0: 7cae 413d 9789 ebbd c4fc b43d d088 693d
000001f0: 5c2d bd3d 048c 623d d0e7 163c 82f4 a83d
-0.01271987 -0.101726435 -0.092718065 -0.011627294 0.0049144477 0.022743419 -0.0036165863 0.06580517
0.069313034 -0.10153968 0.09983759 0.07135752 -0.07539645 0.10160056 -0.018363588 0.049010947
0.04553476 -0.05731848 0.013978943 0.09314783 -0.06298282 -0.024027482 0.088845626 0.099212244
0.007156655 0.033796176 0.003748238 0.034485042 -0.056476235 -0.10361292 0.019752175 -0.05597102
-0.097498044 -0.094526574 0.11410859 0.059986204 0.11483656 -0.031410657 0.081648186 -0.12158413
-0.029975556 3.5598874e-05 0.10842629 0.11715317 0.118302956 0.08825037 0.09437166 0.0044957995
-0.082210496 -0.06261342 -0.06638498 0.045586735 0.06899768 0.0028019696 -0.03658876 -0.074498415
0.078072324 0.109453976 -0.043414496 0.11648275 -0.11981781 -0.10608935 0.08478989 -0.00070530176
0.032248393 -0.0689795 -0.037083358 -0.041059792 0.07652363 0.051927343 -0.01430136 0.057131156
-0.071178764 -0.128125 0.027847633 -0.122341774 0.053605705 0.12740703 0.029281393 -0.08471383
-0.045287922 0.03858106 0.11997564 0.09816398 -0.10798501 0.0007158965 -0.08621208 -0.08607123
-0.01726754 -0.011918776 0.10925126 0.11742906 0.12617727 0.12453304 0.00583522 -0.050380148
-0.07359445 0.11501807 0.08994715 -0.085545145 0.0077129304 -0.007989824 0.075090796 0.032127112
-0.059054285 -0.0136538595 0.06189029 -0.056443088 0.06727138 -0.06648826 -0.04650101 -0.032115653
-0.091079816 -0.089221045 0.071864724 -0.026187636 -0.11339515 -0.08221348 0.06715302 -0.089875266
0.047285542 -0.115008526 0.08837274 0.05701524 0.09237167 0.05530931 0.009210542 0.08249761

weight f4 [128]
00000000: 0000 803f 0000 803f 0000 803f 0000 803f
00000010: 0000 803f 0000 803f 0000 803f 0000 803f
00000020: 0000 803f 0000 803f 0000 803f 0000 803f
00000030: 0000 803f 0000 803f 0000 803f 0000 803f
00000040: 0000 803f 0000 803f 0000 803f 0000 803f
00000050: 0000 803f 0000 803f 0000 803f 0000 803f
00000060: 0000 803f 0000 803f 0000 803f 0000 803f
00000070: 0000 803f 0000 803f 0000 803f 0000 803f
00000080: 0000 803f 0000 803f 0000 803f 0000 803f
00000090: 0000 803f 0000 803f 0000 803f 0000 803f
000000a0: 0000 803f 0000 803f 0000 803f 0000 803f
000000b0: 0000 803f 0000 803f 0000 803f 0000 803f
000000c0: 0000 803f 0000 803f 0000 803f 0000 803f
000000d0: 0000 803f 0000 803f 0000 803f 0000 803f
000000e0: 0000 803f 0000 803f 0000 803f 0000 803f
000000f0: 0000 803f 0000 803f 0000 803f 0000 803f
00000100: 0000 803f 0000 803f 0000 803f 0000 803f
00000110: 0000 803f 0000 803f 0000 803f 0000 803f
00000120: 0000 803f 0000 803f 0000 803f 0000 803f
00000130: 0000 803f 0000 803f 0000 803f 0000 803f
00000140: 0000 803f 0000 803f 0000 803f 0000 803f
00000150: 0000 803f 0000 803f 0000 803f 0000 803f
00000160: 0000 803f 0000 803f 0000 803f 0000 803f
00000170: 0000 803f 0000 803f 0000 803f 0000 803f
00000180: 0000 803f 0000 803f 0000 803f 0000 803f
00000190: 0000 803f 0000 803f 0000 803f 0000 803f
000001a0: 0000 803f 0000 803f 0000 803f 0000 803f
000001b0: 0000 803f 0000 803f 0000 803f 0000 803f
000001c0: 0000 803f 0000 803f 0000 803f 0000 803f
000001d0: 0000 803f 0000 803f 0000 803f 0000 803f
000001e0: 0000 803f 0000 803f 0000 803f 0000 803f
000001f0: 0000 803f 0000 803f 0000 803f 0000 803f
1.0 1.0 1.0 1.0 1.0 1.0 1.0 1.0
1.0 1.0 1.0 1.0 1.0 1.0 1.0 1.0
1.0 1.0 1.0 1.0 1.0 1.0 1.0 1.0
1.0 1.0 1.0 1.0 1.0 1.0 1.0 1.0
1.0 1.0 1.0 1.0 1.0 1.0 1.0 1.0
1.0 1.0 1.0 1.0 1.0 1.0 1.0 1.0
1.0 1.0 1.0 1.0 1.0 1.0 1.0 1.0
1.0 1.0 1.0 1.0 1.0 1.0 1.0 1.0
1.0 1.0 1.0 1.0 1.0 1.0 1.0 1.0
1.0 1.0 1.0 1.0 1.0 1.0 1.0 1.0
1.0 1.0 1.0 1.0 1.0 1.0 1.0 1.0
1.0 1.0 1.0 1.0 1.0 1.0 1.0 1.0
1.0 1.0 1.0 1.0 1.0 1.0 1.0 1.0
1.0 1.0 1.0 1.0 1.0 1.0 1.0 1.0
1.0 1.0 1.0 1.0 1.0 1.0 1.0 1.0
1.0 1.0 1.0 1.0 1.0 1.0 1.0 1.0

bias f4 [128]
00000000: 0000 0000 0000 0000 0000 0000 0000 0000
00000010: 0000 0000 0000 0000 0000 0000 0000 0000
00000020: 0000 0000 0000 0000 0000 0000 0000 0000
00000030: 0000 0000 0000 0000 0000 0000 0000 0000
00000040: 0000 0000 0000 0000 0000 0000 0000 0000
00000050: 0000 0000 0000 0000 0000 0000 0000 0000
00000060: 0000 0000 0000 0000 0000 0000 0000 0000
00000070: 0000 0000 0000 0000 0000 0000 0000 0000
00000080: 0000 0000 0000 0000 0000 0000 0000 0000
00000090: 0000 0000 0000 0000 0000 0000 0000 0000
000000a0: 0000 0000 0000 0000 0000 0000 0000 0000
000000b0: 0000 0000 0000 0000 0000 0000 0000 0000
000000c0: 0000 0000 0000 0000 0000 0000 0000 0000
000000d0: 0000 0000 0000 0000 0000 0000 0000 0000
000000e0: 0000 0000 0000 0000 0000 0000 0000 0000
000000f0: 0000 0000 0000 0000 0000 0000 0000 0000
00000100: 0000 0000 0000 0000 0000 0000 0000 0000
00000110: 0000 0000 0000 0000 0000 0000 0000 0000
00000120: 0000 0000 0000 0000 0000 0000 0000 0000
00000130: 0000 0000 0000 0000 0000 0000 0000 0000
00000140: 0000 0000 0000 0000 0000 0000 0000 0000
00000150: 0000 0000 0000 0000 0000 0000 0000 0000
00000160: 0000 0000 0000 0000 0000 0000 0000 0000
00000170: 0000 0000 0000 0000 0000 0000 0000 0000
00000180: 0000 0000 0000 0000 0000 0000 0000 0000
00000190: 0000 0000 0000 0000 0000 0000 0000 0000
000001a0: 0000 0000 0000 0000 0000 0000 0000 0000
000001b0: 0000 0000 0000 0000 0000 0000 0000 0000
000001c0: 0000 0000 0000 0000 0000 0000 0000 0000
000001d0: 0000 0000 0000 0000 0000 0000 0000 0000
000001e0: 0000 0000 0000 0000 0000 0000 0000 0000
000001f0: 0000 0000 0000 0000 0000 0000 0000 0000
0.0 0.0 0.0 0.0 0.0 0.0 0.0 0.0
0.0 0.0 0.0 0.0 0.0 0.0 0.0 0.0
0.0 0.0 0.0 0.0 0.0 0.0 0.0 0.0
0.0 0.0 0.0 0.0 0.0 0.0 0.0 0.0
0.0 0.0 0.0 0.0 0.0 0.0 0.0 0.0
0.0 0.0 0.0 0.0 0.0 0.0 0.0 0.0
0.0 0.0 0.0 0.0 0.0 0.0 0.0 0.0
0.0 0.0 0.0 0.0 0.0 0.0 0.0 0.0
0.0 0.0 0.0 0.0 0.0 0.0 0.0 0.0
0.0 0.0 0.0 0.0 0.0 0.0 0.0 0.0
0.0 0.0 0.0 0.0 0.0 0.0 0.0 0.0
0.0 0.0 0.0 0.0 0.0 0.0 0.0 0.0
0.0 0.0 0.0 0.0 0.0 0.0 0.0 0.0
0.0 0.0 0.0 0.0 0.0 0.0 0.0 0.0
0.0 0.0 0.0 0.0 0.0 0.0 0.0 0.0
0.0 0.0 0.0 0.0 0.0 0.0 0.0 0.0

running_mean f4 [128]
00000000: 0000 0000 0000 0000 0000 0000 0000 0000
00000010: 0000 0000 0000 0000 0000 0000 0000 0000
00000020: 0000 0000 0000 0000 0000 0000 0000 0000
00000030: 0000 0000 0000 0000 0000 0000 0000 0000
00000040: 0000 0000 0000 0000 0000 0000 0000 0000
00000050: 0000 0000 0000 0000 0000 0000 0000 0000
00000060: 0000 0000 0000 0000 0000 0000 0000 0000
00000070: 0000 0000 0000 0000 0000 0000 0000 0000
00000080: 0000 0000 0000 0000 0000 0000 0000 0000
00000090: 0000 0000 0000 0000 0000 0000 0000 0000
000000a0: 0000 0000 0000 0000 0000 0000 0000 0000
000000b0: 0000 0000 0000 0000 0000 0000 0000 0000
000000c0: 0000 0000 0000 0000 0000 0000 0000 0000
000000d0: 0000 0000 0000 0000 0000 0000 0000 0000
000000e0: 0000 0000 0000 0000 0000 0000 0000 0000
000000f0: 0000 0000 0000 0000 0000 0000 0000 0000
00000100: 0000 0000 0000 0000 0000 0000 0000 0000
00000110: 0000 0000 0000 0000 0000 0000 0000 0000
00000120: 0000 0000 0000 0000 0000 0000 0000 0000
00000130: 0000 0000 0000 0000 0000 0000 0000 0000
00000140: 0000 0000 0000 0000 0000 0000 0000 0000
00000150: 0000 0000 0000 0000 0000 0000 0000 0000
00000160: 0000 0000 0000 0000 0000 0000 0000 0000
00000170: 0000 0000 0000 0000 0000 0000 0000 0000
00000180: 0000 0000 0000 0000 0000 0000 0000 0000
00000190: 0000 0000 0000 0000 0000 0000 0000 0000
000001a0: 0000 0000 0000 0000 0000 0000 0000 0000
000001b0: 0000 0000 0000 0000 0000 0000 0000 0000
000001c0: 0000 0000 0000 0000 0000 0000 0000 0000
000001d0: 0000 0000 0000 0000 0000 0000 0000 0000
000001e0: 0000 0000 0000 0000 0000 0000 0000 0000
000001f0: 0000 0000 0000 0000 0000 0000 0000 0000
0.0 0.0 0.0 0.0 0.0 0.0 0.0 0.0
0.0 0.0 0.0 0.0 0.0 0.0 0.0 0.0
0.0 0.0 0.0 0.0 0.0 0.0 0.0 0.0
0.0 0.0 0.0 0.0 0.0 0.0 0.0 0.0
0.0 0.0 0.0 0.0 0.0 0.0 0.0 0.0
0.0 0.0 0.0 0.0 0.0 0.0 0.0 0.0
0.0 0.0 0.0 0.0 0.0 0.0 0.0 0.0
0.0 0.0 0.0 0.0 0.0 0.0 0.0 0.0
0.0 0.0 0.0 0.0 0.0 0.0 0.0 0.0
0.0 0.0 0.0 0.0 0.0 0.0 0.0 0.0
0.0 0.0 0.0 0.0 0.0 0.0 0.0 0.0
0.0 0.0 0.0 0.0 0.0 0.0 0.0 0.0
0.0 0.0 0.0 0.0 0.0 0.0 0.0 0.0
0.0 0.0 0.0 0.0 0.0 0.0 0.0 0.0
0.0 0.0 0.0 0.0 0.0 0.0 0.0 0.0
0.0 0.0 0.0 0.0 0.0 0.0 0.0 0.0

running_var f4 [128]
00000000: 0000 803f 0000 803f 0000 803f 0000 803f
00000010: 0000 803f 0000 803f 0000 803f 0000 803f
00000020: 0000 803f 0000 803f 0000 803f 0000 803f
00000030: 0000 803f 0000 803f 0000 803f 0000 803f
00000040: 0000 803f 0000 803f 0000 803f 0000 803f
00000050: 0000 803f 0000 803f 0000 803f 0000 803f
00000060: 0000 803f 0000 803f 0000 803f 0000 803f
00000070: 0000 803f 0000 803f 0000 803f 0000 803f
00000080: 0000 803f 0000 803f 0000 803f 0000 803f
00000090: 0000 803f 0000 803f 0000 803f 0000 803f
000000a0: 0000 803f 0000 803f 0000 803f 0000 803f
000000b0: 0000 803f 0000 803f 0000 803f 0000 803f
000000c0: 0000 803f 0000 803f 0000 803f 0000 803f
000000d0: 0000 803f 0000 803f 0000 803f 0000 803f
000000e0: 0000 803f 0000 803f 0000 803f 0000 803f
000000f0: 0000 803f 0000 803f 0000 803f 0000 803f
00000100: 0000 803f 0000 803f 0000 803f 0000 803f
00000110: 0000 803f 0000 803f 0000 803f 0000 803f
00000120: 0000 803f 0000 803f 0000 803f 0000 803f
00000130: 0000 803f 0000 803f 0000 803f 0000 803f
00000140: 0000 803f 0000 803f 0000 803f 0000 803f
00000150: 0000 803f 0000 803f 0000 803f 0000 803f
00000160: 0000 803f 0000 803f 0000 803f 0000 803f
00000170: 0000 803f 0000 803f 0000 803f 0000 803f
00000180: 0000 803f 0000 803f 0000 803f 0000 803f
00000190: 0000 803f 0000 803f 0000 803f 0000 803f
000001a0: 0000 803f 0000 803f 0000 803f 0000 803f
000001b0: 0000 803f 0000 803f 0000 803f 0000 803f
000001c0: 0000 803f 0000 803f 0000 803f 0000 803f
000001d0: 0000 803f 0000 803f 0000 803f 0000 803f
000001e0: 0000 803f 0000 803f 0000 803f 0000 803f
000001f0: 0000 803f 0000 803f 0000 803f 0000 803f
1.0 1.0 1.0 1.0 1.0 1.0 1.0 1.0
1.0 1.0 1.0 1.0 1.0 1.0 1.0 1.0
1.0 1.0 1.0 1.0 1.0 1.0 1.0 1.0
1.0 1.0 1.0 1.0 1.0 1.0 1.0 1.0
1.0 1.0 1.0 1.0 1.0 1.0 1.0 1.0
1.0 1.0 1.0 1.0 1.0 1.0 1.0 1.0
1.0 1.0 1.0 1.0 1.0 1.0 1.0 1.0
1.0 1.0 1.0 1.0 1.0 1.0 1.0 1.0
1.0 1.0 1.0 1.0 1.0 1.0 1.0 1.0
1.0 1.0 1.0 1.0 1.0 1.0 1.0 1.0
1.0 1.0 1.0 1.0 1.0 1.0 1.0 1.0
1.0 1.0 1.0 1.0 1.0 1.0 1.0 1.0
1.0 1.0 1.0 1.0 1.0 1.0 1.0 1.0
1.0 1.0 1.0 1.0 1.0 1.0 1.0 1.0
1.0 1.0 1.0 1.0 1.0 1.0 1.0 1.0
1.0 1.0 1.0 1.0 1.0 1.0 1.0 1.0

weight f4 [64, 128]
00000000: ee7e 6e3e ada3 6e3d b5c9 153e 33bb 46bd
00000010: e214 53bd 6803 3dbe f571 c4bb 4e11 843d
00000020: 3b45 97bc f376 fbbc 1160 e6bd 4b3c 493e
00000030: e5f5 d23d 322d a33d cf46 0f3e 0379 53be
00000040: 62be 02be 9c43 bcbc 05f4 993d e917 7c3d
00000050: 898d 183e b504 f3bd c838 e43d 33ba 16be
00000060: 994f 62bd cdec 8fbd 5778 d6bd ea58 0b3e
00000070: f4a8 083c b837 0bbe c2a7 d0bd d4af 09be
00000080: 8a57 e83d fbb1 913d 4a6b e6bd 82b7 04bd
00000090: 6e17 0ebe a644 47bd ebda 513d 9846 f0bd
000000a0: 3e5b 4abc b937 a2be f918 c5bb 9411 1bbe
000000b0: 32ea a93b df62 b9bc 2beb afbd baac 0a3d
000000c0: cd31 893d 7449 c3bd 975b 4e3d 3365 7abc
000000d0: 5917 803d 0720 adbd 3e14 793d fd42 0b3e
000000e0: 6b2b 7d3d 6b00 f2bd 23a2 a7bd 64b3 40be
000000f0: c1a6 5abd 610c 32bd a634 113e 88a7 a7bc
00000100: 04a3 3cbd 3dea 9f3d 69e1 b2bb 29fc 16be
00000110: 6d04 92be 35cc 07be 025b 803d ec93 bdbd
00000120: 21ba 343e 7441 583e 8fde 3d3d ffcd 81bd
00000130: f5ba 77be 5db5 31be ce64 c83b 0e01 89bd
00000140: 818f 983d 6f1f 31be fec9 c1bc e3cd 8bbd
00000150: 0963 303e 2e83 803d 6d5f 9a3e 81fb 123e
00000160: 37b8 4dbe e590 903d 9820 fdbc 5d7b 40bd
00000170: 9e8d 853b e1f2 1dbd 033f ac3d f100 813e
00000180: 3e8c 7aba 7fdf b63c 2ad0 e0bc 547e 0d3e
00000190: 7b94 2f3e 07f3 94be 3d44 053d ec4d ea3d
000001a0: daf0 38be 4743 d63c 4b12 193d a82d 843d
000001b0: 34e7 803e 6fb8 e2bc 7b97 513e 5968 d5bd
000001c0: 0687 0d3e 1572 403e 86c9 583d 0bf9 57be
000001d0: 5106 773d a02b 1e3e b743 fb3b c951 88bd
000001e0: 2cbc 9cbd 5e98 d0bc 4fed e63c a1bd 14be
000001f0: 557b 453d aa71 d3bd ec85 50bc 2a21 063c
00000200: 8976 97bc 96a0 01be 4bdd 123c 7cb8 d5bb
00000210: e51f 39bd eba5 0abd cf07 2b3d 4710 dc3b
00000220: fa86 7abc 5902 97be b2cb 373e fb1c b13d
00000230: 4ec5 f6bd a8ef 53bd e32b 9a3d 2f47 57bd
00000240: 6ae1 aebd 84cc 65bd 4744 553e 4c43 da3d
00000250: a873 35bc b545 783d 1d18 98bd 34b3 483c
00000260: 1592 bebc f7d1 b5bd 5d6d 3ebe af00 c33c
00000270: f706 53be ef4b acbd 12b5 ec3b 8e3d 54be
00000280: a080 093d 41c4 3d3e ee65 adbd a8a2 b83d
00000290: 20d9 213d a6b4 33bd 634d b6bd 9b89 88bd
000002a0: 9304 5ebd 7be6 973d f3dd 843d c8a3 473e
000002b0: a2bd 6dbe 949e 5cbd 6dc6 b1bd 00c8 a13c
000002c0: b0ca e6bd 49bf 2dbd 97c2 44be 97d5 9c3d
000002d0: c21d a33d 0b50 7f3d 2229 323d 00da 8ebd
000002e0: 18af 93bd 3198 dc3c c9f0 3b3e 4ee3 153e
000002f0: 7cb6 123e 5abd 70be 0836 11be 7d8c f8bd
00000300: 524c 26bc 1a31 df3c 9c26 143e 8814 16be
00000310: ed04 26be e79d 2a3b 740b 33bd 215d d0bd
00000320: 4402 64bd ac86 f2bd 2dbc 0c3e 8fe3 40be
00000330: 5fa3 ca3d 70d7 a93c 2ac8 40be 3d5d 893c
00000340: bab1 dcbc a0fe 823e 83e5 3cbc f96d 353e
00000350: bb8f 153d 175b 16be ff7b 973c d90f 53be
00000360: 7d9f 23bc 3d6e 85bd f4c1 bdbd 5d6e 4e3d
00000370: 3593 873d 6d4c 413d b244 21bd d6eb fb3b
00000380: bf20 0c3d 5d40 f9bd 7d18 c23c 048c 49be
00000390: e203 6a3e 3e14 9bbd e3d2 27be 01a5 90ba
000003a0: 68e8 3dbc a8d3 4d3e 41f7 ae3d 99f1 f9bc
000003b0: d663 eebb 6d12 983d 38ad 1f3c de27 eb3c
000003c0: f664 383d 5124 1dbd 5a93 733d e52e d13d
000003d0: d0d4 3c3d ddfa dbbd f99e f3bc 4107 9f3c
000003e0: 9473 d7bd e50c 0fbe c65b a5bd 76fc 3d3c
000003f0: d231 f1bd b78a 303e 6afc 2fbe 3901 263e
0.23290607 0.058261562 0.14627726 -0.04851837 -0.051533587 -0.1845833 -0.00599503 0.06448613
-0.018465629 -0.030696368 -0.11248792 0.19651906 0.10300807 0.07967605 0.13991855 -0.20651631
-0.12767938 -0.022981457 0.07517246 0.06154624 0.14897741 -0.11866132 0.11143643 -0.14719467
-0.05525169 -0.07027588 -0.10472172 0.13608137 0.008341063 -0.13595474 -0.10188247 -0.1344598
0.11344822 0.07114025 -0.112509325 -0.03240157 -0.13876125 -0.048649453 0.051234167 -0.11732215
-0.012350855 -0.31683138 -0.00601494 -0.15143424 0.005185389 -0.022630153 -0.085897766 0.03385613
0.06698952 -0.095354944 0.050380316 -0.015282917 0.06254453 -0.08453374 0.06081032 0.13599773
0.061808985 -0.11816486 -0.08185222 -0.18818432 -0.053381685 -0.043468837 0.1418024 -0.020465627
-0.0460539 0.07808349 -0.005459 -0.14744629 -0.28519002 -0.13261493 0.06267358 -0.092567295
0.17649128 0.21118718 0.046354827 -0.06338119 -0.24192412 -0.17354341 0.0061155325 -0.06689654
0.07449246 -0.17297147 -0.023655888 -0.06826379 0.17225279 0.062750205 0.3015093 0.14353754
-0.20089804 0.070588864 -0.030899331 -0.04699265 0.00407572 -0.038561705 0.08410456 0.2519603
-0.0009557641 0.022323368 -0.02744301 0.13817722 0.17146485 -0.29091665 0.03253578 0.11440644
-0.18060628 0.026155127 0.03737096 0.06454021 0.25176394 -0.027675835 0.20467941 -0.10420293
0.13821039 0.18793519 0.052926563 -0.21091096 0.06030876 0.15446329 0.0076679843 -0.06656224
-0.076530784 -0.02546328 0.02818933 -0.14525463 0.04821332 -0.10324414 -0.012727242 0.008186618
-0.01848914 -0.12658915 0.008963893 -0.0065222364 -0.045196433 -0.033849638 0.041755494 0.0067158076
-0.01529097 -0.2949398 0.17948797 0.08648106 -0.12049352 -0.051742226 0.07527902 -0.05255812
-0.08539088 -0.056103244 0.20826827 0.10657367 -0.011074938 0.060613353 -0.07426474 0.012249757
-0.023263017 -0.08877938 -0.18596406 0.023804037 -0.20608126 -0.08412921 0.0072237337 -0.20726606
0.033569932 0.18531896 -0.08466707 0.09015399 0.039513707 -0.04387345 -0.08901479 -0.06666871
-0.05420358 0.074170075 0.06487646 0.19496071 -0.2321687 -0.05386217 -0.08680425 0.019748688
-0.11269128 -0.042418752 -0.19214855 0.076579265 0.0796466 0.062332194 0.04349626 -0.06975174
-0.07211131 0.02692804 0.18353571 0.14637491 0.14327425 -0.23509732 -0.14180768 -0.12136171
-0.010150032 0.027245093 0.14467853 -0.1465627 -0.16212817 0.0026034059 -0.043712094 -0.10174013
-0.055666223 -0.11842093 0.13743658 -0.18836807 0.09894442 0.020732611 -0.18826357 0.016768092
-0.026940215 0.25584888 -0.011529329 0.17717732 0.036514025 -0.14683186 0.018491743 -0.20611514
-0.009986755 -0.06515167 -0.09265509 0.05039822 0.066198744 0.047192026 -0.039372154 0.007688026
0.034210917 -0.121704794 0.023693318 -0.19682318 0.22853044 -0.0757222 -0.1638904 -0.0011035503
-0.0115910545 0.20100272 0.08543254 -0.03051071 -0.007275085 0.074253894 0.009745888 0.028705534
0.04501816 -0.038364712 0.059466697 0.102140225 0.04610139 -0.10741208 -0.02973889 0.019412639
-0.10520092 -0.13969763 -0.08074145 0.011595836 -0.117770806 0.17240416 -0.17186132 0.16211404

bias f4 [64]
00000000: 66c4 7f3d 6ca6 f3bc d8bd c33c 77a7 adbd
00000010: 6285 1dbd e00e cd3b 1416 b0bc 22d7 8dbd
00000020: 7a32 083d f408 6bbd 9665 21bd ceed 5d3d
00000030: 3840 9dbd 954e 8f3d 83d1 963d 7abb 30bd
00000040: b2cd 403d c038 bcbb 7475 9bbc 6a3a 053d
00000050: 70be c9bb b295 3f3d ac46 933c 9404 b0bc
00000060: 3e52 243d 9f65 ac3d 59d5 b03d ff5d a4bd
00000070: c05e 97ba 7387 9a3d f1df 943d 164c 49bd
00000080: cc7b b03c ec1a ffbc a04c 08bd 5dfc ad3d
00000090: 8203 a4bd 6457 a9bc b0c9 8bbb 00b7 e039
000000a0: 7ed3 283d 7eb1 4e3d aa6a 7f3d cc36 25bd
000000b0: 88c3 44bc 2ec1 543d 4849 5d3c b8b3 58bd
000000c0: 143d d63c e8d2 0ebc 9cf7 c3bc 80b0 52ba
000000d0: 72de 4a3d 7bd8 953d f17a 943d 0d60 ae3d
000000e0: 4ead 9abd 94bb d83c 20ee 3abc e4da 2bbd
000000f0: 2241 8ebd 4f42 0ebd 3ef8 503d cca3 af3c
0.06244316 -0.029742442 0.023894235 -0.08479207 -0.038457282 0.0062578768 -0.021494903 -0.06925799
0.033251263 -0.057381585 -0.03940352 0.054181866 -0.076782644 0.0699741 0.0736418 -0.04314754
0.047071166 -0.00574407 -0.018976904 0.03252641 -0.006156735 0.04677362 0.017978035 -0.021486558
0.040117495 0.0841782 0.08634443 -0.08025741 -0.0011548623 0.07545366 0.07269276 -0.049144827
0.021543406 -0.031140767 -0.0332762 0.084954 -0.080084816 -0.020671554 -0.0042659864 0.00042860955
0.04121732 0.05046224 0.062357582 -0.04033546 -0.012009509 0.051942043 0.013506241 -0.05290577
0.026152171 -0.008717276 -0.02392178 -0.0008037165 0.049528547 0.07316681 0.07250012 0.08514414
-0.075525865 0.026456632 -0.0114093125 -0.041956797 -0.06946017 -0.034731206 0.051017992 0.02144041

weight f4 [64]
00000000: 0000 803f 0000 803f 0000 803f 0000 803f
00000010: 0000 803f 0000 803f 0000 803f 0000 803f
00000020: 0000 803f 0000 803f 0000 803f 0000 803f
00000030: 0000 803f 0000 803f 0000 803f 0000 803f
00000040: 0000 803f 0000 803f 0000 803f 0000 803f
00000050: 0000 803f 0000 803f 0000 803f 0000 803f
00000060: 0000 803f 0000 803f 0000 803f 0000 803f
00000070: 0000 803f 0000 803f 0000 803f 0000 803f
00000080: 0000 803f 0000 803f 0000 803f 0000 803f
00000090: 0000 803f 0000 803f 0000 803f 0000 803f
000000a0: 0000 803f 0000 803f 0000 803f 0000 803f
000000b0: 0000 803f 0000 803f 0000 803f 0000 803f
000000c0: 0000 803f 0000 803f 0000 803f 0000 803f
000000d0: 0000 803f 0000 803f 0000 803f 0000 803f
000000e0: 0000 803f 0000 803f 0000 803f 0000 803f
000000f0: 0000 803f 0000 803f 0000 803f 0000 803f
1.0 1.0 1.0 1.0 1.0 1.0 1.0 1.0
1.0 1.0 1.0 1.0 1.0 1.0 1.0 1.0
1.0 1.0 1.0 1.0 1.0 1.0 1.0 1.0
1.0 1.0 1.0 1.0 1.0 1.0 1.0 1.0
1.0 1.0 1.0 1.0 1.0 1.0 1.0 1.0
1.0 1.0 1.0 1.0 1.0 1.0 1.0 1.0
1.0 1.0 1.0 1.0 1.0 1.0 1.0 1.0
1.0 1.0 1.0 1.0 1.0 1.0 1.0 1.0

bias f4 [64]
00000000: 0000 0000 0000 0000 0000 0000 0000 0000
00000010: 0000 0000 0000 0000 0000 0000 0000 0000
00000020: 0000 0000 0000 0000 0000 0000 0000 0000
00000030: 0000 0000 0000 0000 0000 0000 0000 0000
00000040: 0000 0000 0000 0000 0000 0000 0000 0000
00000050: 0000 0000 0000 0000 0000 0000 0000 0000
00000060: 0000 0000 0000 0000 0000 0000 0000 0000
00000070: 0000 0000 0000 0000 0000 0000 0000 0000
00000080: 0000 0000 0000 0000 0000 0000 0000 0000
00000090: 0000 0000 0000 0000 0000 0000 0000 0000
000000a0: 0000 0000 0000 0000 0000 0000 0000 0000
000000b0: 0000 0000 0000 0000 0000 0000 0000 0000
000000c0: 0000 0000 0000 0000 0000 0000 0000 0000
000000d0: 0000 0000 0000 0000 0000 0000 0000 0000
000000e0: 0000 0000 0000 0000 0000 0000 0000 0000
000000f0: 0000 0000 0000 0000 0000 0000 0000 0000
0.0 0.0 0.0 0.0 0.0 0.0 0.0 0.0
0.0 0.0 0.0 0.0 0.0 0.0 0.0 0.0
0.0 0.0 0.0 0.0 0.0 0.0 0.0 0.0
0.0 0.0 0.0 0.0 0.0 0.0 0.0 0.0
0.0 0.0 0.0 0.0 0.0 0.0 0.0 0.0
0.0 0.0 0.0 0.0 0.0 0.0 0.0 0.0
0.0 0.0 0.0 0.0 0.0 0.0 0.0 0.0
0.0 0.0 0.0 0.0 0.0 0.0 0.0 0.0

running_mean f4 [64]
00000000: 0000 0000 0000 0000 0000 0000 0000 0000
00000010: 0000 0000 0000 0000 0000 0000 0000 0000
00000020: 0000 0000 0000 0000 0000 0000 0000 0000
00000030: 0000 0000 0000 0000 0000 0000 0000 0000
00000040: 0000 0000 0000 0000 0000 0000 0000 0000
00000050: 0000 0000 0000 0000 0000 0000 0000 0000
00000060: 0000 0000 0000 0000 0000 0000 0000 0000
00000070: 0000 0000 0000 0000 0000 0000 0000 0000
00000080: 0000 0000 0000 0000 0000 0000 0000 0000
00000090: 0000 0000 0000 0000 0000 0000 0000 0000
000000a0: 0000 0000 0000 0000 0000 0000 0000 0000
000000b0: 0000 0000 0000 0000 0000 0000 0000 0000
000000c0: 0000 0000 0000 0000 0000 0000 0000 0000
000000d0: 0000 0000 0000 0000 0000 0000 0000 0000
000000e0: 0000 0000 0000 0000 0000 0000 0000 0000
000000f0: 0000 0000 0000 0000 0000 0000 0000 0000
0.0 0.0 0.0 0.0 0.0 0.0 0.0 0.0
0.0 0.0 0.0 0.0 0.0 0.0 0.0 0.0
0.0 0.0 0.0 0.0 0.0 0.0 0.0 0.0
0.0 0.0 0.0 0.0 0.0 0.0 0.0 0.0
0.0 0.0 0.0 0.0 0.0 0.0 0.0 0.0
0.0 0.0 0.0 0.0 0.0 0.0 0.0 0.0
0.0 0.0 0.0 0.0 0.0 0.0 0.0 0.0
0.0 0.0 0.0 0.0 0.0 0.0 0.0 0.0

running_var f4 [64]
00000000: 0000 803f 0000 803f 0000 803f 0000 803f
00000010: 0000 803f 0000 803f 0000 803f 0000 803f
00000020: 0000 803f 0000 803f 0000 803f 0000 803f
00000030: 0000 803f 0000 803f 0000 803f 0000 803f
00000040: 0000 803f 0000 803f 0000 803f 0000 803f
00000050: 0000 803f 0000 803f 0000 803f 0000 803f
00000060: 0000 803f 0000 803f 0000 803f 0000 803f
00000070: 0000 803f 0000 803f 0000 803f 0000 803f
00000080: 0000 803f 0000 803f 0000 803f 0000 803f
00000090: 0000 803f 0000 803f 0000 803f 0000 803f
000000a0: 0000 803f 0000 803f 0000 803f 0000 803f
000000b0: 0000 803f 0000 803f 0000 803f 0000 803f
000000c0: 0000 803f 0000 803f 0000 803f 0000 803f
000000d0: 0000 803f 0000 803f 0000 803f 0000 803f
000000e0: 0000 803f 0000 803f 0000 803f 0000 803f
000000f0: 0000 803f 0000 803f 0000 803f 0000 803f
1.0 1.0 1.0 1.0 1.0 1.0 1.0 1.0
1.0 1.0 1.0 1.0 1.0 1.0 1.0 1.0
1.0 1.0 1.0 1.0 1.0 1.0 1.0 1.0
1.0 1.0 1.0 1.0 1.0 1.0 1.0 1.0
1.0 1.0 1.0 1.0 1.0 1.0 1.0 1.0
1.0 1.0 1.0 1.0 1.0 1.0 1.0 1.0
1.0 1.0 1.0 1.0 1.0 1.0 1.0 1.0
1.0 1.0 1.0 1.0 1.0 1.0 1.0 1.0

weight f4 [40, 64]
00000000: 1897 193d aa30 c9bd e611 e43d d485 2f3d
00000010: 50e1 1a3d 0401 7e3d 6236 8abd fac3 b63d
00000020: 3296 febd 6ce5 5d3d 06ac dc3d 4641 bebd
00000030: 4875 e9bd 9882 e2bc a04a cd3c 90cf dbbc
00000040: 8424 77bd b0c8 8cbd e4f7 5f3d 4cfc ab3d
00000050: 6425 913d 9e7c 9cbd f035 993c 0086 de39
00000060: 60e3 b33b 8080 3c3b 28fb 9a3d 00b0 1cbd
00000070: fae9 cfbd ec67 0dbd 9af6 bdbd 60a3 db3d
00000080: b28c b6bd 724b c3bd cca9 1e3d f019 d7bd
00000090: 94af e53d 947d 933d 3c8b e6bd c46b a43d
000000a0: 609f e03d 70f8 7cbd e242 8b3d 90fb 09bd
000000b0: 38cb 23bd a432 6bbd 0c04 80bd 2085 60bc
000000c0: 7e81 bc3d f2ec e03d 661b f1bd 30aa 673d
000000d0: ae59 c0bd a0a4 61bd c2c3 a83d e049 a9bd
000000e0: e845 85bc 20ef f8bb 0e63 f5bd 002d f5ba
000000f0: 3461 373d e008 a7bb 4098 603d f0b5 08bd
00000100: 088d a93d 24bb 9bbd de1c a63d ec74 9c3d
00000110: 68d5 27bd f866 e4bd 0053 1dbb c4a3 d1bd
00000120: 8008 a0ba 58b1 993d 00bc c339 1c66 34bd
00000130: 7e97 ed3d e0f6 18bd c6f7 a5bd 22d9 a4bd
00000140: 4812 08bd b665 c73d 4ce7 b93d 48d9 7e3d
00000150: 103f b03c e04e 843d d818 d53c 8e32 e6bd
00000160: 14eb 143d c084 e3bb 2085 443d a281 eebd
00000170: c0f9 62bb a0a8 c3bd 34c4 8d3d 2046 0fbc
00000180: 409d 933c a0c7 163c 763c f0bd 88a7 b7bd
00000190: a823 ad3c 5e92 81bd 304b 3cbd 30df da3d
000001a0: 4e31 88bd 94e3 6b3d 20ee db3c e8ec ae3c
000001b0: a0a0 edbd a83e 98bc a09f 283c 20a2 fcbd
000001c0: b05e 273c 309d febd c0c2 e0bb 945f 35bd
000001d0: 5003 90bc 18ee abbc bc53 023d 2ef6 b23d
000001e0: b242 8e3d 763c e1bd 5e3f f93d f85e 71bd
000001f0: d851 3d3d 683e b8bc 1c13 2dbd e675 9f3d
00000200: 689a e4bc 2cc5 ef3d 205f c53c 88ff 94bd
00000210: 1669 db3d f078 f13c c464 40bd 18a3 e5bd
00000220: 54e1 b6bd ee7b e6bd 700f 7d3d f0f0 1cbd
00000230: 1cd2 a73d 1c9e 343d e4f9 7ebd fccd fe3d
00000240: 2ad9 fc3d d03d cc3d 2051 4a3d 00a1 14bd
00000250: a8bf c23d d09b b13c b8d6 debc 5089 d9bd
00000260: 60ad 73bc 9ce5 51bd e8b3 013d be08 d7bd
00000270: 1009 4a3c 4029 d2bb 48ef 933c 221c 92bd
00000280: e830 e1bd 00a7 6b3d d45c 6bbd 5c0c 073d
00000290: a877 acbc 0033 b3bd a62a ba3d 00d1 a43a
000002a0: d813 983d 7895 f03d b672 b13d 7044 40bd
000002b0: e02a f03c 8017 153c 68cc 38bd 8412 443d
000002c0: dcf0 0d3d d432 ebbd 00bc f3bc c44c 9dbd
000002d0: 7412 14bd b8b3 bebc 8e26 febd 26f6 a63d
000002e0: 80ea 52bc f6f1 a63d 60f5 e93b 5cd9 7cbd
000002f0: 50f9 fc3d 30b5 b33c 0a25 8b3d d8f4 a0bc
00000300: 72ac ccbd d4e7 fe3d 001d 42bd 3043 023c
00000310: 008c b6b9 dcfd 78bd f478 963d 40a0 7d3d
00000320: 6859 af3c 7cbf cdbd dccf e4bd 2eb7 ea3d
00000330: 3887 ef3c 70cd 50bc 505e 4d3d aca5 4ebd
00000340: f6c6 adbd cc0c a0bd 0c75 81bd 7850 593d
00000350: 5efd d0bd 2467 d6bd f061 fcbc e6a2 873d
00000360: 30cb be3c 0c46 993d f4e1 febd 9a11 80bd
00000370: a4ab 24bd c470 f6bd 188f dd3d f04e 86bc
00000380: ba0d 97bd acc4 ecbd 207a 343d 24b1 1a3d
00000390: d44f 353d 0030 febc 30cf be3c 8472 b33d
000003a0: da92 f63d 0a43 b93d 209a f73d f8c1 e63d
000003b0: 2810 65bd 08d9 e43c 4add 8f3d 9c79 afbd
000003c0: de7e c83d 0012 6c3b 4a22 b73d 6021 6cbc
000003d0: 003b 43ba a02b 9fbc 8006 e8bd 20a8 223d
000003e0: 2459 c83d fe7c f3bd 905c 97bd 1082 613c
000003f0: 8ca7 793d 003a 673b 2eb5 de3d 969d ca3d
0.03749761 -0.09823735 0.11136226 0.042852238 0.03781253 0.062012687 -0.06748654 0.08924098
-0.12430991 0.054173872 0.10774998 -0.09289794 -0.11399323 -0.027650163 0.025059998 -0.026832372
-0.06033756 -0.068742156 0.054679766 0.08397731 0.0708721 -0.07640956 0.018702477 0.00042442977
0.0054897517 0.0028763115 0.075674355 -0.038253784 -0.10152049 -0.034522936 -0.09275551 0.10724521
-0.08913554 -0.095358744 0.03873615 -0.10502994 0.112151295 0.072016865 -0.112570256 0.08028367
0.10967898 -0.061760366 0.06799866 -0.033687174 -0.039988726 -0.05742134 -0.06250772 -0.0137036145
0.09204386 0.10982694 -0.11772804 0.056558788 -0.09392105 -0.05508864 0.08240463 -0.08266044
-0.016268685 -0.0075968653 -0.11981784 -0.0018705428 0.044770434 -0.0050974935 0.054832697 -0.033376634
0.08278853 -0.076040536 0.08110975 0.076394886 -0.040975004 -0.11152452 -0.002400577 -0.10236314
-0.0012209564 0.07504529 0.0003733337 -0.04404269 0.116011605 -0.037344813 -0.081039 -0.08049227
-0.03322056 0.09736197 0.090773195 0.062218934 0.021514446 0.06460357 0.026012823 -0.11240111
0.036357 -0.0069433153 0.04797852 -0.11645819 -0.0034633726 -0.09553647 0.069221884 -0.008744746
0.018019319 0.009202868 -0.11730282 -0.08967501 0.021135166 -0.063267455 -0.045970142 0.10687101
-0.06650029 0.057590082 0.026846945 0.0213532 -0.116029024 -0.018584564 0.010291964 -0.123356104
0.010215446 -0.12432325 -0.0068591535 -0.044280604 -0.017579705 -0.020987555 0.031818137 0.08738361
0.06946315 -0.1099786 0.121702895 -0.05892846 0.04622063 -0.022490695 -0.042254552 0.07786159
-0.027905658 0.117075294 0.02409321 -0.07275301 0.10713403 0.029476613 -0.046971098 -0.11212748
-0.08929697 -0.112541065 0.0617823 -0.038315713 0.08194372 0.044096097 -0.062250033 0.12441632
0.12346108 0.09972727 0.049393773 -0.036286354 0.09509212 0.021680743 -0.027201995 -0.106218934
-0.014872879 -0.051244363 0.031665713 -0.10499714 0.012331262 -0.006413609 0.018058434 -0.07134272
-0.10995656 0.05753231 -0.057461575 0.03297077 -0.02105315 -0.08749962 0.09090166 0.0012574494
0.0742566 0.11747259 0.086644575 -0.046940267 0.02931732 0.009099841 -0.045116812 0.04786922
0.03465353 -0.11484304 -0.029752731 -0.076806575 -0.03615041 -0.023279056 -0.124096975 0.08152418
-0.012873292 0.08151619 0.0071398467 -0.061730728 0.1235224 0.021936983 0.06794174 -0.019648
-0.09993829 0.124465615 -0.047390938 0.007950589 -0.00034818053 -0.060788974 0.07347289 0.061920404
0.021404937 -0.10046288 -0.111724585 0.1146072 0.029239282 -0.012744293 0.05013877 -0.050450966
-0.084852144 -0.07814941 -0.06321153 0.053055257 -0.10204576 -0.10468891 -0.030808419 0.06622867
0.023290247 0.074840635 -0.12445441 -0.06253357 -0.04020275 -0.12033227 0.108183086 -0.016395062
-0.07375665 -0.1156095 0.04406178 0.03776659 0.044265583 -0.031028748 0.023292154 0.087620765
0.120397285 0.0904599 0.12089944 0.11267465 -0.05592361 0.02793552 0.070246294 -0.08568117
0.09789823 0.003602147 0.08942087 -0.014412254 -0.00074474514 -0.019429982 -0.11329365 0.039711118
0.09782627 -0.11889075 -0.07390702 0.0137639195 0.0609508 0.0035282373 0.10874401 0.098933384
