models/loghazard_final.pth (torch, 40710 bytes, 14 tensors)

weight f4 [64, 60]
-0.1068324 0.19630915 0.19580127 0.017685901 0.118405774 -0.006602019 0.07818402 0.07801067
-0.088755906 0.031182656 0.1268303 -0.10272321 -0.080216676 -0.10296009 -0.13438779 0.023195181
-0.005225863 0.21965338 -0.16147476 0.24815257 -0.017107772 -0.04926285 0.1293614 -0.03418989
0.12210474 0.100882955 -0.18155734 0.21380839 0.11730269 0.1277647 0.038286418 -0.32787603
0.25219828 0.18943243 0.2506051 0.33183795 0.005471959 0.017986178 -0.18593496 -0.0059499517
-0.0005001076 0.19569267 0.11004489 -0.029504169 0.036488254 -0.11521554 -0.22535852 -0.11671078
0.05345091 -0.0007541348 -0.005922147 -0.13028084 -0.019107733 -0.4142773 0.14534435 0.45677668
0.2237353 -0.14125793 -0.21146902 0.16071755 0.12713507 -0.041287847 -0.024028625 -0.19498383
-0.3570252 0.046747066 -0.01069912 -0.30140635 0.08629418 -0.38764954 -0.013861139 -0.33068386
-0.14889194 -0.15961044 0.060022447 -0.13303892 -0.05724855 0.2720905 0.34187004 -0.0820066
0.17885308 0.08444295 -0.15970205 -0.22893433 0.47104028 0.27967912 0.43014354 -0.114724636
0.22831362 -0.02669357 0.07204235 -0.21615867 0.2590861 -0.11252375 0.49571097 0.003701299
0.19060543 0.18572035 -0.22908616 -0.20931537 -0.08590321 -0.0693386 0.2841014 0.29335955
0.21909532 -0.117242664 -0.3047591 -0.26986197 -0.008350532 -0.112077884 0.24667928 0.20406142
-0.11066236 -0.15599044 -0.20570922 -0.019110529 0.009259 0.35198858 -0.21655433 -0.0152960075
-0.24362637 -0.079419985 -0.054854937 -0.2415118 0.14402676 0.012751992 -0.13464534 0.46610317
0.007315681 -0.03704644 -0.23040956 0.13150711 -0.28985292 -0.13156317 -0.30400023 -0.064274326
-0.12540485 0.23754492 0.13829528 0.25548962 -0.36277458 0.29004744 -0.31564316 -0.015218303
-0.42470214 -0.01801378 -0.14375688 0.30895114 0.16320609 -0.29767063 0.16023481 -0.06374499
-0.20167907 -0.251937 0.17621645 0.0009154557 0.07731853 -0.12509254 0.20952077 -0.02202398
0.009545019 -0.1560874 -0.0117495265 -0.14670208 0.34833342 0.018068274 -0.10838154 -0.33411056
-0.03526189 -0.08411284 -0.05529254 -0.2552092 0.098772004 0.06836568 -0.059648827 -0.06062799
0.17905985 0.08283829 -0.11788281 0.26999888 -0.15013625 0.2337986 -0.1073139 -0.32325375
0.06197526 0.13648248 -0.07336216 0.09535384 -0.19255954 -0.19205268 -0.12007191 -0.10809591
0.062805496 0.064248286 0.010619325 0.30187047 -0.010097594 0.03217463 -0.11966921 -0.07781554
0.053497825 0.04363649 -0.10304074 -0.05403472 -0.18449312 0.11457345 0.1496488 -0.096503265
0.039635304 0.19536594 0.30997336 0.16027924 -0.07116531 0.13743854 0.036370635 -0.021565182
0.19102152 0.07371622 0.19801825 -0.019181259 0.1765802 0.019846037 0.3059879 -0.105967395
0.2579249 -0.01986069 0.3089408 0.060612947 -0.10863074 0.043881197 0.15775956 0.19505844
0.008301991 0.10667577 -0.3564804 0.062713906 0.15000105 0.110382915 0.051996376 0.054843433
-0.04305849 0.304318 0.09395074 0.14128739 0.0073007527 0.0065564695 -0.30733424 -0.1743209
-0.08153018 0.0640457 0.092743866 0.57186526 -0.031648688 -0.0058753677 -0.32385886 -0.07373177
00000000: f2ca dabd 4405 493e 2180 483e 06e2 903c
00000010: ba7e f23d c055 d8bb f21e a03d 0fc4 9f3d
00000020: a8c5 b5bd c572 ff3c cddf 013e 8c60 d2bd
00000030: a448 a4bd bddc d2bd f49c 09be d203 be3c
00000040: b73d abbb d1ec 603e a459 25be b51b 7e3e
00000050: 9925 8cbc d8c7 49bd 5177 043e b30a 0cbd
00000060: 0d12 fa3d b99b ce3d 2bea 39be 96f0 5a3e
00000070: 653c f03d c0d4 023e 38d2 1c3d 5edf a7be
00000080: 2220 813e 93fa 413e 504f 803e aae6 a93e
00000090: 1e4e b33b c057 933c bc65 3ebe d0f7 c2bb
000000a0: a719 03ba a963 483e 375f e13d bab2 f1bc
000000b0: b574 153d 20f6 ebbd 62c4 66be 1006 efbd
000000c0: 57ef 5a3d 21b1 45ba 920e c2bb 5768 05be
000000d0: d287 9cbc 271c d4be 26d5 143e a2de e93e
000000e0: de1a 653e eba5 10be 568b 58be 2493 243e
000000f0: b22f 023e 721d 29bd aed7 c4bc d7a9 47be
00000100: 02cc b6be da79 3f3d 5d4b 2fbc ef51 9abe
00000110: 01bb b03d 007a c6be d519 63bc 654f a9be
00000120: 2177 18be eb70 23be 19da 753d 5b3b 08be
00000130: 757d 6abd 724f 8b3e 9709 af3e 14f3 a7bd
00000140: 4325 373e 6df0 ac3d ef88 23be c36d 6abe
00000150: 312c f13e 1a32 8f3e c63b dc3e c0f4 eabd
00000160: 0ccb 693e 79ac dabc f18a 933d b358 5dbe
00000170: efa6 843e da72 e6bd d4cd fd3e 7e91 723b
00000180: 122e 433e 7a2d 3e3e 9095 6abe c556 56be
00000190: 06ee afbd 6501 8ebd bd75 913e 3933 963e
000001a0: 865a 603e ec1c f0bd 6209 9cbe 592b 8abe
000001b0: abd0 08bc 1789 e5bd 7e99 7c3e 7af5 503e
000001c0: f3a2 e2bd f5bb 1fbe 70a5 52be af8d 9cbc
000001d0: 10b3 173c d937 b43e 6bc0 5dbe 1b9c 7abc
000001e0: 3179 79be f2a6 a2bd 92af 60bd df4e 77be
000001f0: c07b 133e bbed 503c 78e0 09be 13a5 ee3e
00000200: 61b8 ef3b 02be 17bd 7cf0 6bbe cda9 063e
00000210: 9a67 94be 7fb8 06be eba5 9bbe 42a2 83bd
00000220: 216a 00be fa3e 733e 479d 0d3e 89cf 823e
00000230: 97bd b9be 1981 943e fb9b a1be 3056 79bc
00000240: 8f72 d9be a291 93bc 0135 13be d82e 9e3e
00000250: 7f1f 273e 4968 98be 9814 243e bc8c 82bd
00000260: f584 4ebe e3fd 80be 1672 343e 31fb 6f3a
00000270: 2d59 9e3d 4218 00be 9d8c 563e a26b b4bc
00000280: b662 1c3c 60d5 1fbe 1681 40bc 1239 16be
00000290: c258 b23e eb03 943c 24f7 ddbd 8a10 abbe
000002a0: c66e 10bd 5a43 acbd 6e7a 62bd c8aa 82be
000002b0: fa48 ca3d 4e03 8c3d 5452 74bd 0e55 78bd
000002c0: 775b 373e 1fa7 a93d 8b6c f1bd 4b3d 8a3e
000002d0: 51bd 19be e668 6f3e 64c7 dbbd 8481 a5be
000002e0: c5d9 7d3d 10c2 0b3e e63e 96bd e048 c33d
000002f0: 542e 45be 75a9 44be 43e8 f5bd 6361 ddbd
00000300: 2ba0 803d 9b94 833d adfc 2d3c c48e 9a3e
00000310: 6170 25bc 8bc9 033d 2115 f5bd c15d 9fbd
00000320: 8920 5b3d 2dbc 323d 0607 d3bd 8353 5dbd
00000330: c4eb 3cbe 7ca5 ea3d 893d 193e 81a3 c5bd
00000340: a158 223d 020e 483e d4b4 9e3e 3e20 243e
00000350: 1ebf 91bd b0bc 0c3e 60f9 143d 77a9 b0bc
00000360: 259b 433e 88f8 963d 4cc5 4a3e 0422 9dbc
00000370: 71d1 343e 2894 a23c 72aa 9c3e 6f05 d9bd
00000380: bc0e 843e e3b2 a2bc 7d2d 9e3e 4845 783d
00000390: cb79 debd c5bc 333d b98b 213e 66bd 473e
000003a0: 1305 083c d378 da3d 9984 b6be 2670 803d
000003b0: e099 193e 7010 e23d 27fa 543d 82a3 603d
000003c0: 195e 30bd 92cf 9b3e 3f69 c03d a4ad 103e
000003d0: 273b ef3b a7d7 d63b ea5a 9dbe 2e81 32be
000003e0: 4cf9 a6bd 642a 833d 7ff0 bd3d c365 123f
000003f0: 0ea2 01bd 2886 c0bb d4d0 a5be af00 97bd

bias f4 [64]
0.07454504 -0.12801039 -0.053270914 0.09060438 0.0037488043 0.062215194 0.068943456 -0.027784273
0.08654933 0.045470804 0.0026545376 -0.043373547 0.11610618 0.084347084 -0.084513605 0.080058396
-0.06762974 0.077621505 -0.061981723 -0.011206523 0.06180547 -0.03134448 0.019732669 -0.09212874
-0.05056829 -0.016944565 -0.061509795 0.06707369 0.07256961 0.02094376 0.015945673 -0.03986658
0.025491744 0.010397688 0.035288826 0.05491762 -0.12692137 -0.08656292 -0.025699854 -0.0764927
0.05521959 0.048287526 -0.06403153 0.047711015 -0.021360748 0.095961496 0.016676411 -0.062186055
-0.048423313 0.11930524 -0.09233719 0.043652862 -0.08586365 -0.06365189 -0.024469033 0.04933144
0.05458629 -0.12593713 0.052358434 -0.01722563 0.07744624 0.026604325 0.114315525 -0.027656257
00000000: 12ab 983d 2815 03be 9a32 5abd ca8e b93d
00000010: 80ae 753b 5cd5 7e3d 3a32 8d3d d89b e3bc
00000020: c640 b13d 983f 3a3d c0f7 2d3b 76a8 31bd
00000030: 14c9 ed3d 2abe ac3d 7815 adbd a8f5 a33d
00000040: 7681 8abd 06f8 9e3d 8ce0 7dbd 909b 37bc
00000050: bc27 7d3d 1263 00bd 68a6 a13c fead bcbd
00000060: b220 4fbd 54cf 8abc b2f1 7bbd ee5d 893d
00000070: 609f 943d 4092 ab3c 80a0 823c 244b 23bd
00000080: 10d4 d03c 105b 2a3c 048b 103d 4cf1 603d
00000090: adf7 01be e647 b1bd 8088 d2bc 34a8 9cbd
000000a0: f02d 623d 24c9 453d f622 83bd a06c 433d
000000b0: bcfc aebc 7687 c43d f89c 883c ceb6 7ebd
000000c0: 8657 46bd 4e56 f43d 481b bdbd 58cd 323d
000000d0: 48d9 afbd ec5b 82bd 4873 c8bc c40f 4a3d
000000e0: e095 5f3d aaf5 00be cc75 563d c41c 8dbc
000000f0: 229c 9e3d 50f1 d93c 421e ea3d 608f e2bc

weight f4 [64]
1.0 1.0 1.0 1.0 1.0 1.0 1.0 1.0
1.0 1.0 1.0 1.0 1.0 1.0 1.0 1.0
1.0 1.0 1.0 1.0 1.0 1.0 1.0 1.0
1.0 1.0 1.0 1.0 1.0 1.0 1.0 1.0
1.0 1.0 1.0 1.0 1.0 1.0 1.0 1.0
1.0 1.0 1.0 1.0 1.0 1.0 1.0 1.0
1.0 1.0 1.0 1.0 1.0 1.0 1.0 1.0
1.0 1.0 1.0 1.0 1.0 1.0 1.0 1.0
00000000: 0000 803f 0000 803f 0000 803f 0000 803f
00000010: 0000 803f 0000 803f 0000 803f 0000 803f
00000020: 0000 803f 0000 803f 0000 803f 0000 803f
00000030: 0000 803f 0000 803f 0000 803f 0000 803f
00000040: 0000 803f 0000 803f 0000 803f 0000 803f
00000050: 0000 803f 0000 803f 0000 803f 0000 803f
00000060: 0000 803f 0000 803f 0000 803f 0000 803f
00000070: 0000 803f 0000 803f 0000 803f 0000 803f
00000080: 0000 803f 0000 803f 0000 803f 0000 803f
00000090: 0000 803f 0000 803f 0000 803f 0000 803f
000000a0: 0000 803f 0000 803f 0000 803f 0000 803f
000000b0: 0000 803f 0000 803f 0000 803f 0000 803f
000000c0: 0000 803f 0000 803f 0000 803f 0000 803f
000000d0: 0000 803f 0000 803f 0000 803f 0000 803f
000000e0: 0000 803f 0000 803f 0000 803f 0000 803f
000000f0: 0000 803f 0000 803f 0000 803f 0000 803f

bias f4 [64]
0.0 0.0 0.0 0.0 0.0 0.0 0.0 0.0
0.0 0.0 0.0 0.0 0.0 0.0 0.0 0.0
0.0 0.0 0.0 0.0 0.0 0.0 0.0 0.0
0.0 0.0 0.0 0.0 0.0 0.0 0.0 0.0
0.0 0.0 0.0 0.0 0.0 0.0 0.0 0.0
0.0 0.0 0.0 0.0 0.0 0.0 0.0 0.0
0.0 0.0 0.0 0.0 0.0 0.0 0.0 0.0
0.0 0.0 0.0 0.0 0.0 0.0 0.0 0.0
00000000: 0000 0000 0000 0000 0000 0000 0000 0000
00000010: 0000 0000 0000 0000 0000 0000 0000 0000
00000020: 0000 0000 0000 0000 0000 0000 0000 0000
00000030: 0000 0000 0000 0000 0000 0000 0000 0000
00000040: 0000 0000 0000 0000 0000 0000 0000 0000
00000050: 0000 0000 0000 0000 0000 0000 0000 0000
00000060: 0000 0000 0000 0000 0000 0000 0000 0000
00000070: 0000 0000 0000 0000 0000 0000 0000 0000
00000080: 0000 0000 0000 0000 0000 0000 0000 0000
00000090: 0000 0000 0000 0000 0000 0000 0000 0000
000000a0: 0000 0000 0000 0000 0000 0000 0000 0000
000000b0: 0000 0000 0000 0000 0000 0000 0000 0000
000000c0: 0000 0000 0000 0000 0000 0000 0000 0000
000000d0: 0000 0000 0000 0000 0000 0000 0000 0000
000000e0: 0000 0000 0000 0000 0000 0000 0000 0000
000000f0: 0000 0000 0000 0000 0000 0000 0000 0000

running_mean f4 [64]
0.0 0.0 0.0 0.0 0.0 0.0 0.0 0.0
0.0 0.0 0.0 0.0 0.0 0.0 0.0 0.0
0.0 0.0 0.0 0.0 0.0 0.0 0.0 0.0
0.0 0.0 0.0 0.0 0.0 0.0 0.0 0.0
0.0 0.0 0.0 0.0 0.0 0.0 0.0 0.0
0.0 0.0 0.0 0.0 0.0 0.0 0.0 0.0
0.0 0.0 0.0 0.0 0.0 0.0 0.0 0.0
0.0 0.0 0.0 0.0 0.0 0.0 0.0 0.0
00000000: 0000 0000 0000 0000 0000 0000 0000 0000
00000010: 0000 0000 0000 0000 0000 0000 0000 0000
00000020: 0000 0000 0000 0000 0000 0000 0000 0000
00000030: 0000 0000 0000 0000 0000 0000 0000 0000
00000040: 0000 0000 0000 0000 0000 0000 0000 0000
00000050: 0000 0000 0000 0000 0000 0000 0000 0000
00000060: 0000 0000 0000 0000 0000 0000 0000 0000
00000070: 0000 0000 0000 0000 0000 0000 0000 0000
00000080: 0000 0000 0000 0000 0000 0000 0000 0000
00000090: 0000 0000 0000 0000 0000 0000 0000 0000
000000a0: 0000 0000 0000 0000 0000 0000 0000 0000
000000b0: 0000 0000 0000 0000 0000 0000 0000 0000
000000c0: 0000 0000 0000 0000 0000 0000 0000 0000
000000d0: 0000 0000 0000 0000 0000 0000 0000 0000
000000e0: 0000 0000 0000 0000 0000 0000 0000 0000
000000f0: 0000 0000 0000 0000 0000 0000 0000 0000

running_var f4 [64]
1.0 1.0 1.0 1.0 1.0 1.0 1.0 1.0
1.0 1.0 1.0 1.0 1.0 1.0 1.0 1.0
1.0 1.0 1.0 1.0 1.0 1.0 1.0 1.0
1.0 1.0 1.0 1.0 1.0 1.0 1.0 1.0
1.0 1.0 1.0 1.0 1.0 1.0 1.0 1.0
1.0 1.0 1.0 1.0 1.0 1.0 1.0 1.0
1.0 1.0 1.0 1.0 1.0 1.0 1.0 1.0
1.0 1.0 1.0 1.0 1.0 1.0 1.0 1.0
00000000: 0000 803f 0000 803f 0000 803f 0000 803f
00000010: 0000 803f 0000 803f 0000 803f 0000 803f
00000020: 0000 803f 0000 803f 0000 803f 0000 803f
00000030: 0000 803f 0000 803f 0000 803f 0000 803f
00000040: 0000 803f 0000 803f 0000 803f 0000 803f
00000050: 0000 803f 0000 803f 0000 803f 0000 803f
00000060: 0000 803f 0000 803f 0000 803f 0000 803f
00000070: 0000 803f 0000 803f 0000 803f 0000 803f
00000080: 0000 803f 0000 803f 0000 803f 0000 803f
00000090: 0000 803f 0000 803f 0000 803f 0000 803f
000000a0: 0000 803f 0000 803f 0000 803f 0000 803f
000000b0: 0000 803f 0000 803f 0000 803f 0000 803f
000000c0: 0000 803f 0000 803f 0000 803f 0000 803f
000000d0: 0000 803f 0000 803f 0000 803f 0000 803f
000000e0: 0000 803f 0000 803f 0000 803f 0000 803f
000000f0: 0000 803f 0000 803f 0000 803f 0000 803f

weight f4 [32, 64]
-0.102900326 0.017598031 0.21475652 0.02725887 0.10315612 -0.033369645 0.015875522 -0.1376269
0.22583105 0.17880079 0.106492795 -0.17082015 -0.2504967 -0.08283838 -0.0030548717 -0.20485938
-0.06306266 -0.16643466 -0.037587605 0.041691896 -0.01800749 -0.1476151 -0.021597272 -0.17077832
-0.17948629 -0.085726365 0.21444027 0.05702955 0.29995525 0.008330655 0.02237659 0.002889927
-0.10297242 0.12427729 0.103290826 0.11011506 0.21838747 -0.33848375 0.12450901 0.06591333
-0.14222787 0.033299122 0.09468999 -0.19133103 0.032718275 0.18592465 0.10874341 -0.18370739
-0.106251635 -0.04264432 0.038331304 -0.0030764826 -0.24787508 0.035968 -0.29941937 -0.23461643
0.04264901 -0.34941113 0.11784576 -0.13586538 -0.07699799 -0.3395031 0.05935549 -0.13708006
-0.45918933 0.13243145 -0.113568336 -0.15003967 0.16492334 0.08576217 -0.1395971 -0.32043722
0.18914327 0.07189695 -0.40983307 -0.10974876 0.011218825 0.03531591 0.18477844 0.06627922
-0.04574333 -0.12547816 -0.055776205 -0.22277956 0.14096479 0.03401463 -0.2579263 0.14040579
0.30568784 -0.2643563 -0.124871045 -0.20359814 0.111948594 -0.03778373 0.07841807 -0.039680995
-0.21451646 0.08905223 0.07754155 0.018837936 0.39512962 -0.06670982 -0.18165176 0.01999161
0.18103382 -0.13458632 0.11624989 0.07564188 -0.15565553 -0.16090105 0.19263405 0.08877009
-0.12704857 0.33775857 -0.021108871 0.33173355 0.2181528 0.068954095 0.26273516 0.005382147
-0.20593004 0.066599645 0.2731782 -0.06331808 -0.20133667 0.25166285 0.1541719 0.24896608
-0.12785369 0.3093235 0.2354051 0.2423383 -0.1488578 -0.094207674 -0.22695334 0.39526242
0.006175121 -0.010765076 0.28343755 0.20985027 0.17330857 -0.15210725 0.027244853 0.10253933
-0.17219193 -0.10481399 -0.15750808 -0.5005561 -0.030249927 0.19460975 -0.019329285 -0.20453934
-0.10719589 -0.21159774 0.015118752 -0.091613464 -0.16224675 -0.03221256 -0.02005119 -0.24000607
0.15500616 0.39827248 0.05057224 -0.0686198 -0.16104364 -0.004866518 -0.033582862 0.27391803
-0.11645591 0.0719731 -0.0021532404 -0.05625058 -0.26895225 -0.1722394 -0.047986094 -0.049586948
-0.10633902 0.009030009 0.1432529 0.16017462 -0.19397295 -0.29976955 0.06869461 0.101383954
0.1224752 -0.3049182 0.30616403 -0.22752967 0.19548248 0.025375795 -0.07140974 -0.1073466
-0.054645743 -0.19145545 0.006823312 0.06521477 0.10286341 -0.043174937 -0.109930895 0.044648953
-0.3458349 0.024582865 -0.28254077 -0.039685007 0.35652974 0.15389125 -0.14846335 -0.13602376
0.108442724 -0.05721484 0.16023158 0.070475996 0.108703345 -0.20137995 0.029933495 0.29370984
0.14744818 0.13101439 0.095159754 0.034618013 0.19843003 0.30214688 0.089211054 0.16785814
0.049355466 0.37061927 -0.415377 -0.06368574 -0.16964966 -0.0967887 0.0515148 0.20200358
-0.13266695 0.096710555 0.14091952 0.15861116 0.15158886 0.32418737 -0.3625702 0.1877971
0.20345046 0.14216754 0.33062243 -0.024150578 0.20308486 0.21314675 0.29115665 0.13711825
0.25947297 -0.056839567 0.05289189 0.0017497172 0.13476811 0.24060613 -0.036489245 0.12393099
00000000: 68bd d2bd bf29 903c 22e9 5b3e fe4d df3c
00000010: 8443 d33d 9cae 08bd 620d 823c 11ee 0cbe
00000020: 4140 673e 8e17 373e e518 da3d 7aeb 2ebe
00000030: 1a41 80be 2ba7 a9bd 3e34 48bb a8c6 51be
00000040: ff26 81bd d96d 2abe 76f5 19bd 1fc5 2a3d
00000050: 7284 93bc 6a28 17be c3ec b0bc 83e0 2ebe
00000060: 41cb 37be 4e91 afbd 3b96 5b3e d197 693d
00000070: bc93 993e 4d7d 083c 1c4f b73c ee64 3d3b
00000080: 34e3 d2bd 1885 fe3d 248a d33d 0184 e13d
00000090: f7a0 5f3e be4d adbe 94fe fe3d 91fd 863d
000000a0: 2fa4 11be a964 083d d3ec c13d 48ec 43be
000000b0: 9903 063d 0863 3e3e ddb4 de3d ca1d 3cbe
000000c0: 759a d9bd cfab 2ebd 4901 1d3d d09e 49bb
000000d0: f7d2 7dbe 2e53 133d 7f4d 99be 4a3f 70be
000000e0: bab0 2e3d 04e6 b2be 1e59 f13d 4b20 0bbe
000000f0: 1fb1 9dbd 5ad3 adbe be1e 733d b75e 0cbe
00000100: dd1a ebbe 1c9c 073e 8496 e8bd 00a4 19be
00000110: aae1 283e 14a4 af3d 8bf2 0ebe 5910 a4be
00000120: c6ae 413e b53e 933d a4d5 d1be f5c3 e0bd
00000130: 2acf 373c 6aa7 103d 8f36 3d3e 66bd 873d
00000140: 5c5d 3bbd 597d 00be 9775 64bd 5320 64be
00000150: 1359 103e ed52 0b3d ea0e 84be 89c6 0f3e
00000160: 1e83 9c3e b559 87be 64bc ffbd 087c 50be
00000170: 4e45 e53d 1dc3 1abd a799 a03d 8a88 22bd
00000180: 34aa 5bbe 0461 b63d 1bce 9e3d 0452 9a3c
00000190: 6e4e ca3e 289f 88bd eb02 3abe 72c5 a33c
000001a0: ee60 393e ffd0 09be 6c14 ee3d 21ea 9a3d
000001b0: 2a64 1fbe 3fc3 24be dc41 453e 18cd b53d
000001c0: 0519 02be b1ee ac3e 83ec acbc fbd8 a93e
000001d0: 7363 5f3e ce37 8d3d 3985 863e b95c b03b
000001e0: 53df 52be 6565 883d 03de 8b3e e9ac 81bd
000001f0: 332b 4ebe f4d9 803e 3ddf 1d3e f7f0 7e3e
00000200: 14ec 02be a65f 9e3e 090e 713e 8827 783e
00000210: 2e6e 18be f4ef c0bd 7566 68be d65f ca3e
00000220: ab58 ca3b 0060 30bc ba1e 913e fde2 563e
00000230: cd77 313e 01c2 1bbe 9930 df3c 2400 d23d
00000240: 1553 30be b8a8 d6bd cc49 21be 7224 00bf
00000250: b2ce f7bc c747 473e 7358 9ebc c372 51be
00000260: 8589 dbbd 14ad 58be a4b4 773c d79f bbbd
00000270: 0324 26be 51f1 03bd 6542 a4bc 27c4 75be
00000280: efb9 1e3e 5fea cb3e d624 4f3d 8a88 8cbd
00000290: a0e8 24be 5077 9fbb 2f8e 09bd fc3e 8c3e
000002a0: 7080 eebd a266 933d 611d 0dbb 0267 66bd
000002b0: 1cb4 89be 865f 30be 118d 44bd af1b 4bbd
000002c0: 46c8 d9bd 9af2 133c e3b0 123e d104 243e
000002d0: d8a0 46be 657b 99be c2af 8c3d 64a2 cf3d
000002e0: 47d4 fa3d 3d1e 9cbe 88c1 9c3e 8afd 68be
000002f0: 8f2c 483e e6e0 cf3c 453f 92bd 89d8 dbbd
00000300: 37d4 5fbd e60c 44be 1796 df3b 528f 853d
00000310: 0daa d23d 34d8 30bd 7323 e1bd d2e1 363d
00000320: 4611 b1be 0162 c93c 2fa9 90be bf8c 22bd
00000330: 118b b63e ab95 1d3e c706 18be d049 0bbe
00000340: 3817 de3d 1c5a 6abd bf13 243e b855 903d
00000350: dc9f de3d 8c36 4ebe 1737 f53c 2361 963e
00000360: a8fc 163e a328 063e 1ee3 c23d 9ecb 0d3d
00000370: 3e31 4b3e ffb2 9a3e 49b4 b63d 01e3 2b3e
00000380: f528 4a3d cfc1 bd3e 4bac d4be ab6d 82bd
00000390: a4b8 2dbe 2739 c6bd 2f01 533d 07da 4e3e
000003a0: d8d9 07be 2f10 c63d 354d 103e f76a 223e
000003b0: 1c3a 1b3e e3fb a53e cda2 b9be e24d 403e
000003c0: 5155 503e 5e94 113e 5847 a93e 6fd7 c5bc
000003d0: 7af5 4f3e 2443 5a3e 7c12 953e ba68 0c3e
000003e0: a4d9 843e 9bd0 68bd 2ba5 583d c456 e53a
000003f0: a700 0a3e 7461 763e bf75 15bd 88cf fd3d

bias f4 [32]
0.03396967 -0.049290717 -0.085733995 -0.0041693 -0.013116747 0.025146037 0.035729513 0.027075976
0.041150033 -0.117838666 0.07379854 0.0013905913 0.088148564 0.021288231 -0.01659429 0.09287749
-0.0062452108 -0.09058063 0.072228804 -0.078092545 0.07647258 0.06797843 -0.045687884 -0.03472668
-0.064802095 0.10120086 0.09904988 -0.015415505 -0.052986413 -0.02796325 -0.022584975 0.051442727
00000000: c823 0b3d 10e5 49bd 4e95 afbd a09e 88bb
00000010: a0e7 56bc 10ff cd3c 1c59 123d 70ce dd3c
00000020: f08c 283d 6655 f1bd b023 973d 8044 b63a
00000030: 3c87 b43d a864 ae3c c0f0 87bc 8e36 be3d
00000040: a0a4 ccbb 5682 b9bd b2ec 933d fcee 9fbd
00000050: a89d 9c3d 4638 8b3d 3823 3bbd 903d 0ebd
00000060: f6b6 84bd 6642 cf3d aada ca3d 5091 7cbc
00000070: 4808 59bd 3013 e5bc 2004 b9bc 9cb5 523d

weight f4 [32]
1.0 1.0 1.0 1.0 1.0 1.0 1.0 1.0
1.0 1.0 1.0 1.0 1.0 1.0 1.0 1.0
1.0 1.0 1.0 1.0 1.0 1.0 1.0 1.0
1.0 1.0 1.0 1.0 1.0 1.0 1.0 1.0
00000000: 0000 803f 0000 803f 0000 803f 0000 803f
00000010: 0000 803f 0000 803f 0000 803f 0000 803f
00000020: 0000 803f 0000 803f 0000 803f 0000 803f
00000030: 0000 803f 0000 803f 0000 803f 0000 803f
00000040: 0000 803f 0000 803f 0000 803f 0000 803f
00000050: 0000 803f 0000 803f 0000 803f 0000 803f
00000060: 0000 803f 0000 803f 0000 803f 0000 803f
00000070: 0000 803f 0000 803f 0000 803f 0000 803f

bias f4 [32]
0.0 0.0 0.0 0.0 0.0 0.0 0.0 0.0
0.0 0.0 0.0 0.0 0.0 0.0 0.0 0.0
0.0 0.0 0.0 0.0 0.0 0.0 0.0 0.0
0.0 0.0 0.0 0.0 0.0 0.0 0.0 0.0
00000000: 0000 0000 0000 0000 0000 0000 0000 0000
00000010: 0000 0000 0000 0000 0000 0000 0000 0000
00000020: 0000 0000 0000 0000 0000 0000 0000 0000
00000030: 0000 0000 0000 0000 0000 0000 0000 0000
00000040: 0000 0000 0000 0000 0000 0000 0000 0000
00000050: 0000 0000 0000 0000 0000 0000 0000 0000
00000060: 0000 0000 0000 0000 0000 0000 0000 0000
00000070: 0000 0000 0000 0000 0000 0000 0000 0000

running_mean f4 [32]
0.0 0.0 0.0 0.0 0.0 0.0 0.0 0.0
0.0 0.0 0.0 0.0 0.0 0.0 0.0 0.0
0.0 0.0 0.0 0.0 0.0 0.0 0.0 0.0
0.0 0.0 0.0 0.0 0.0 0.0 0.0 0.0
00000000: 0000 0000 0000 0000 0000 0000 0000 0000
00000010: 0000 0000 0000 0000 0000 0000 0000 0000
00000020: 0000 0000 0000 0000 0000 0000 0000 0000
00000030: 0000 0000 0000 0000 0000 0000 0000 0000
00000040: 0000 0000 0000 0000 0000 0000 0000 0000
00000050: 0000 0000 0000 0000 0000 0000 0000 0000
00000060: 0000 0000 0000 0000 0000 0000 0000 0000
00000070: 0000 0000 0000 0000 0000 0000 0000 0000

running_var f4 [32]
1.0 1.0 1.0 1.0 1.0 1.0 1.0 1.0
1.0 1.0 1.0 1.0 1.0 1.0 1.0 1.0
1.0 1.0 1.0 1.0 1.0 1.0 1.0 1.0
1.0 1.0 1.0 1.0 1.0 1.0 1.0 1.0
00000000: 0000 803f 0000 803f 0000 803f 0000 803f
00000010: 0000 803f 0000 803f 0000 803f 0000 803f
00000020: 0000 803f 0000 803f 0000 803f 0000 803f
00000030: 0000 803f 0000 803f 0000 803f 0000 803f
00000040: 0000 803f 0000 803f 0000 803f 0000 803f
00000050: 0000 803f 0000 803f 0000 803f 0000 803f
00000060: 0000 803f 0000 803f 0000 803f 0000 803f
00000070: 0000 803f 0000 803f 0000 803f 0000 803f

weight f4 [50, 32]
-0.055542022 -0.17160892 0.16911413 0.11802839 0.09709324 0.073983744 -0.07889898 -0.14964515
0.029958233 0.12231906 -0.0024998933 0.059654817 -0.06660612 -0.03565058 0.16573648 0.03145577
-0.16283464 0.045235783 -0.15386906 -0.08355246 0.045248523 0.00034157932 0.1408356 0.13891174
-0.020550504 0.07725869 -0.014519364 0.10120644 -0.032703966 0.08261408 -0.067198515 0.094016984
-0.033606425 -0.06600253 -0.1672369 -0.16973448 -0.11850058 0.14519866 0.059693575 0.1653371
0.063460976 0.09605612 0.14849414 0.15614273 -0.02229549 0.0049026757 0.15937798 0.06998986
0.093959704 -0.1477766 -0.012039393 0.070819244 0.03782338 -0.15685384 0.049617022 -0.12174851
-0.0028000325 0.07865064 0.105131224 0.041040346 0.08607717 -0.12649453 -0.00061172247 -0.039422795
0.15051334 0.055437326 -0.12581795 -0.0507129 -0.03234452 0.15360232 -0.015516505 0.008074433
0.10284494 0.053074896 -0.16391687 -0.08945432 -0.13020435 0.039435565 -0.076780155 0.10702194
-0.08128985 -0.06788494 0.16673602 -0.034523204 0.0121744275 -0.16095445 0.083202675 -0.069034345
-0.008325517 -0.0418306 0.0059799403 -0.034612566 0.14704992 0.120234385 0.17166056 -0.09967369
0.12180649 -0.104311086 0.06592657 -0.06972209 -0.09301967 -0.042709783 0.0671563 0.05002451
0.040145904 0.1270156 0.14029773 0.05586727 -0.07943547 0.13978551 -0.17442277 -0.13192853
-0.0692741 0.032780617 -0.07859875 0.017840654 -0.17672601 0.115473315 -0.1306265 -0.1279489
-0.03257142 0.115734056 0.1548511 -0.10786938 0.13678901 0.09405102 0.14279391 0.16923027
0.111717954 -0.11736466 -0.09622393 0.11918704 0.09959625 0.060353428 -0.08527332 -0.028305069
0.041809604 -0.021435186 -0.021033555 0.09030239 0.08827962 0.15993704 0.016072273 0.09288041
0.17418785 -0.13043159 0.16670837 0.08234374 -0.08781152 0.03244467 0.0631863 0.15712418
0.030746803 -0.0554851 0.12225123 -0.13891475 0.018345848 -0.14904778 -0.033036172 -0.02420652
0.052276462 0.077419624 0.0800695 0.014849901 -0.03434089 0.05612871 0.108195856 0.071151346
0.109234616 0.027222276 -0.028672546 0.1175078 0.10432212 0.09659685 0.08115359 0.05839096
-0.0835858 0.14177863 0.02623348 -0.14167431 0.15482278 -0.16850284 -0.10624489 -0.02715005
0.03639306 -0.06995433 0.07937585 0.06003207 -0.057755344 0.028434262 0.03422977 -0.15701562
-0.14217661 0.17668138 0.034293547 0.100011066 0.04735218 0.13697036 0.014018595 0.08409388
-0.08436219 -0.17498349 0.019579947 -0.13561003 0.057799727 0.1410317 0.11144243 0.057413653
0.12660678 0.047734544 -0.06993226 -0.017560527 0.069485754 -0.14258102 -0.01639159 -0.00965631
0.12731631 0.090415224 -0.059741095 -0.15287174 0.15936632 0.051819637 0.032102615 0.15051071
0.08159451 -0.06346921 -0.026944458 -0.090303965 0.16691898 -0.039427936 0.059438556 0.11670585
-0.06562003 0.13894896 0.07408427 0.009494066 -0.09611399 -0.15615 -0.1220198 0.025080621
0.13148625 0.051174805 -0.046888053 -0.068198554 -0.066601604 -0.020511985 -0.059418544 -0.04228954
0.03476818 0.02006255 0.08519454 -0.15006162 0.042906508 0.14967658 -0.07911157 0.04915127
00000000: 0880 63bd 40ba 2fbe 412c 2d3e deb8 f13d
00000010: d2d8 c63d ca84 973d ca95 a1bd 943c 19be
00000020: f86a f53c 6a82 fa3d 40d5 23bb 9c58 743d
00000030: ca68 88bd 5806 12bd d3b6 293e c4d7 003d
00000040: 20be 26be 2849 393d da8f 1dbe 8d1d abbd
00000050: 8456 393d 0016 b339 3537 103e e13e 0e3e
00000060: 8859 a8bc ce39 9e3d a0e2 6dbc 5245 cf3d
00000070: 98f4 05bd 9231 a93d 609f 89bd fa8b c03d
00000080: e4a6 09bd 562c 87bd 2640 2bbe e0ce 2dbe
00000090: 6fb0 f2bd f5ae 143e 4081 743d 214e 293e
000000a0: d4f7 813d 12b9 c43d d90e 183e e1e3 1f3e
000000b0: 08a5 b6bc a0a6 a03b fb33 233e d856 8f3d
000000c0: f26d c03d c052 17be e040 45bc ae09 913d
000000d0: b0ec 1a3d 4b9e 20be 383b 4b3d 4857 f9bd
000000e0: c080 37bb 9613 a13d 0a4f d73d ec19 283d
000000f0: 3a49 b03d c887 01be 005c 20ba cc79 21bd
00000100: 2b20 1a3e 4012 633d 6cd6 00be 54b8 4fbd
00000110: b07b 04bd ed49 1d3e f038 7ebc a04a 043c
00000120: 5ea0 d23d 1065 593d d3d9 27be d433 b7bd
00000130: 4a54 05be 3087 213d ea3e 9dbd 522e db3d
00000140: 4b7b a6bd 4207 8bbd d9bc 2a3e 3468 0dbd
00000150: 4077 473c 3ed1 24be 2a66 aa3d e161 8dbd
00000160: c067 08bc 9056 2bbd 60f3 c33b e8c5 0dbd
00000170: 4194 163e 723d f63d c9c7 2f3e b821 ccbd
00000180: ae75 f93d 0da1 d5bd 8204 873d 75ca 8ebd
00000190: 1981 bebd 74f0 2ebd 3e89 893d 80e6 4c3d
000001a0: 0870 243d 6110 023e 35aa 0f3e 14d5 643d
000001b0: 10af a2bd ef23 0f3e e29b 32be 4618 07be
000001c0: 94df 8dbd f844 063d 62f8 a0bd 9026 923c
000001d0: aaf7 34be 467d ec3d f4c2 05be 0905 03be
000001e0: 9c69 05bd fa05 ed3d 4991 1e3e 9fea dcbd
000001f0: 6b12 0c3e d29d c03d 9138 123e b34a 2d3e
00000200: 62cc e43d e25c f0bd 0d11 c5bd 5618 f43d
00000210: 1ef9 cb3d 2835 773d c7a3 aebd 08e0 e7bc
00000220: 8c40 2b3d d898 afbc 904e acbc 76f0 b83d
00000230: f2cb b43d 89c6 233e 00aa 833c 1638 be3d
00000240: 4d5e 323e dc8f 05be 99b5 2a3e d6a3 a83d
00000250: 87d6 b3bd b4e4 043d d267 813d 29e5 203e
00000260: b8e0 fb3c 5844 63bd da5e fa3d ab3f 0ebe
00000270: 084a 963c fb9f 18be f050 07bd c04c c6bc
00000280: d81f 563d 2e8e 9e3d 7afb a33d 004d 733c
00000290: 08a9 0cbd 38e7 653d ca95 dd3d ccb7 913d
000002a0: 66b6 df3d 4001 df3c b0e2 eabc eea7 f03d
000002b0: d6a6 d53d 92d4 c53d da33 a63d 5c2b 6f3d
000002c0: 082f abbd 6b2e 113e 98e7 d63c 1213 11be
000002d0: dd89 1e3e 028c 2cbe ec96 d9bd c869 debc
000002e0: e410 153d 3744 8fbd ce8f a23d 30e4 753d
000002f0: de90 6cbd f8ee e83c 8434 0c3d b4c8 20be
00000300: bf96 11be f7eb 343e 6477 0c3d 9ad2 cc3d
00000310: 5cf4 413d f541 0c3e 40ae 653c 6a39 ac3d
00000320: 15c6 acbd df2e 33be 2066 a03c 5bdd 0abe
00000330: 68bf 6c3d 9d6a 103e ee3b e43d 942a 6b3d
00000340: 35a5 013e 4c85 433d a538 8fbd 18db 8fbc
00000350: 8c4e 8e3d c200 12be a847 86bc 8035 1ebc
00000360: 355f 023e 9e2b b93d 14b3 74bd 698a 1cbe
00000370: ed30 233e d440 543d 087e 033d 7b1f 1a3e
00000380: 061b a73d 25fc 81bd a0ba dcbc 49f1 b8bd
00000390: cfec 2a3e 307f 21bd d875 733d 7a03 ef3d
000003a0: cb63 86bd a348 0e3e 7eb9 973d 008d 1b3c
000003b0: 69d7 c4bd c9e5 1fbe 84e5 f9bd e075 cd3c
000003c0: 55a4 063e ac9c 513d b00d 40bd afab 8bbd
000003d0: 6c66 88bd c008 a8bc dc60 73bd cc37 2dbd
000003e0: 1469 0e3d 385a a43c 7a7a ae3d c1a9 19be
000003f0: bcbe 2f3d d144 193e 3f05 a2bd d852 493d

bias f4 [50]
-0.07372413 0.0037478805 0.03904678 -0.029566303 -0.1616444 0.11077799 0.14227544 -0.1024549
0.17151733 0.12081663 0.008518621 -0.054850243 -0.08290784 0.15021075 0.09201451 -0.096478686
-0.08452064 -0.013949469 0.17073144 -0.076257996 -0.025671944 0.056814417 0.14232524 -0.020866692
-0.13037358 -0.08823778 -0.056206763 -0.14208165 -0.10542252 -0.035630316 -0.13795957 0.002808243
0.039497286 0.058573157 -0.09521833 -0.11723788 0.11997913 0.08471592 0.009259447 -0.098324195
-0.14603893 0.042417794 0.040999204 -0.055633463 -0.037304938 -0.11137619 -0.05529418 0.016474992
-0.16565096 0.14347579
00000000: adfc 96bd 009f 753b 84ef 1f3d 0835 f2bc
00000010: 1c86 25be 92df e23d a7b0 113e e0d3 d1bd
00000020: 3da2 2f3e b66e f73d b091 0b3c a6aa 60bd
00000030: 96cb a9bd d9d0 193e 1a72 bc3d 9e96 c5bd
00000040: 2819 adbd 508c 64bc 39d4 2e3e 272d 9cbd
00000050: f84d d2bc 3cb6 683d b5bd 113e a0f0 aabc
00000060: a780 05be 02b6 b4bd 1039 66bd da7d 11be
00000070: c3e7 d7bd 18f1 11bd 4645 0dbe 800a 383b
00000080: e8c7 213d 68ea 6f3d d401 c3bd 6a1a f0bd
00000090: 9eb7 f53d 8a7f ad3d f0b4 173c 325e c9bd
000000a0: 3b8b 15be 48be 2d3d c8ee 273d eadf 63bd
000000b0: 10cd 18bd 3319 e4bd 267c 62bd 90f6 863c
000000c0: 68a0 29be 51eb 123e
